…
     "start_time": "2025-05-18T08:28:11.970193400Z"
    }
   }
  },
  {
   "cell_type": "markdown",
   "source": [
    "## Prepare model"
   ],
   "metadata": {
    "collapsed": false
   }
  },
  {
   "cell_type": "code",
   "execution_count": 33,
   "outputs": [
    {
     "name": "stdout",
     "output_type": "stream",
     "text": [
      "OcclusionAwareGenerator(\n",
      "  (dense_motion_network): DenseMotionNetwork(\n",
      "    (hourglass): Hourglass(\n",
      "      (encoder): Encoder(\n",
      "        (down_blocks): ModuleList(\n",
      "          (0): DownBlock2d(\n",
      "            (conv): Conv2d(44, 128, kernel_size=(3, 3), stride=(1, 1), padding=(1, 1))\n",
      "            (norm): BatchNorm2d(128, eps=1e-05, momentum=0.1, affine=True, track_running_stats=True)\n",
      "            (pool): AvgPool2d(kernel_size=(2, 2), stride=(2, 2), padding=0)\n",
      "          )\n",
      "          (1): DownBlock2d(\n",
      "            (conv): Conv2d(128, 256, kernel_size=(3, 3), stride=(1, 1), padding=(1, 1))\n",
      "            (norm): BatchNorm2d(256, eps=1e-05, momentum=0.1, affine=True, track_running_stats=True)\n",
      "            (pool): AvgPool2d(kernel_size=(2, 2), stride=(2, 2), padding=0)\n",
      "          )\n",
      "          (2): DownBlock2d(\n",
      "            (conv): Conv2d(256, 512, kernel_size=(3, 3), stride=(1, 1), padding=(1, 1))\n",
      "            (norm): BatchNorm2d(512, eps=1e-05, momentum=0.1, affine=True, track_running_stats=True)\n",
      "            (pool): AvgPool2d(kernel_size=(2, 2), stride=(2, 2), padding=0)\n",
      "          )\n",
      "          (3): DownBlock2d(\n",
      "            (conv): Conv2d(512, 1024, kernel_size=(3, 3), stride=(1, 1), padding=(1, 1))\n",
      "            (norm): BatchNorm2d(1024, eps=1e-05, momentum=0.1, affine=True, track_running_stats=True)\n",
      "            (pool): AvgPool2d(kernel_size=(2, 2), stride=(2, 2), padding=0)\n",
      "          )\n",
      "          (4): DownBlock2d(\n",
      "            (conv): Conv2d(1024, 1024, kernel_size=(3, 3), stride=(1, 1), padding=(1, 1))\n",
      "            (norm): BatchNorm2d(1024, eps=1e-05, momentum=0.1, affine=True, track_running_stats=True)\n",
      "            (pool): AvgPool2d(kernel_size=(2, 2), stride=(2, 2), padding=0)\n",
      "          )\n",
      "        )\n",
      "      )\n",
      "      (decoder): Decoder(\n",
      "        (up_blocks): ModuleList(\n",
      "          (0): UpBlock2d(\n",
      "            (conv): Conv2d(1024, 1024, kernel_size=(3, 3), stride=(1, 1), padding=(1, 1))\n",
      "            (norm): BatchNorm2d(1024, eps=1e-05, momentum=0.1, affine=True, track_running_stats=True)\n",
      "          )\n",
      "          (1): UpBlock2d(\n",
      "            (conv): Conv2d(2048, 512, kernel_size=(3, 3), stride=(1, 1), padding=(1, 1))\n",
      "            (norm): BatchNorm2d(512, eps=1e-05, momentum=0.1, affine=True, track_running_stats=True)\n",
      "          )\n",
      "          (2): UpBlock2d(\n",
      "            (conv): Conv2d(1024, 256, kernel_size=(3, 3), stride=(1, 1), padding=(1, 1))\n",
      "            (norm): BatchNorm2d(256, eps=1e-05, momentum=0.1, affine=True, track_running_stats=True)\n",
      "          )\n",
      "          (3): UpBlock2d(\n",
      "            (conv): Conv2d(512, 128, kernel_size=(3, 3), stride=(1, 1), padding=(1, 1))\n",
      "            (norm): BatchNorm2d(128, eps=1e-05, momentum=0.1, affine=True, track_running_stats=True)\n",
      "          )\n",
      "          (4): UpBlock2d(\n",
      "            (conv): Conv2d(256, 64, kernel_size=(3, 3), stride=(1, 1), padding=(1, 1))\n",
      "            (norm): BatchNorm2d(64, eps=1e-05, momentum=0.1, affine=True, track_running_stats=True)\n",
      "          )\n",
      "        )\n",
      "      )\n",
      "    )\n",
      "    (mask): Conv2d(108, 11, kernel_size=(7, 7), stride=(1, 1), padding=(3, 3))\n",
      "    (occlusion): Conv2d(108, 1, kernel_size=(7, 7), stride=(1, 1), padding=(3, 3))\n",
      "    (down): AntiAliasInterpolation2d()\n",
      "  )\n",
      "  (first): SameBlock2d(\n",
      "    (conv): Conv2d(3, 64, kernel_size=(7, 7), stride=(1, 1), padding=(3, 3))\n",
      "    (norm): BatchNorm2d(64, eps=1e-05, momentum=0.1, affine=True, track_running_stats=True)\n",
      "  )\n",
      "  (down_blocks): ModuleList(\n",
      "    (0): DownBlock2d(\n",
      "      (conv): Conv2d(64, 128, kernel_size=(3, 3), stride=(1, 1), padding=(1, 1))\n",
      "      (norm): BatchNorm2d(128, eps=1e-05, momentum=0.1, affine=True, track_running_stats=True)\n",
      "      (pool): AvgPool2d(kernel_size=(2, 2), stride=(2, 2), padding=0)\n",
      "    )\n",
      "    (1): DownBlock2d(\n",
      "      (conv): Conv2d(128, 256, kernel_size=(3, 3), stride=(1, 1), padding=(1, 1))\n",
      "      (norm): BatchNorm2d(256, eps=1e-05, momentum=0.1, affine=True, track_running_stats=True)\n",
      "      (pool): AvgPool2d(kernel_size=(2, 2), stride=(2, 2), padding=0)\n",
      "    )\n",
      "  )\n",
      "  (up_blocks): ModuleList(\n",
      "    (0): UpBlock2d(\n",
      "      (conv): Conv2d(256, 128, kernel_size=(3, 3), stride=(1, 1), padding=(1, 1))\n",
      "      (norm): BatchNorm2d(128, eps=1e-05, momentum=0.1, affine=True, track_running_stats=True)\n",
      "    )\n",
      "    (1): UpBlock2d(\n",
      "      (conv): Conv2d(128, 64, kernel_size=(3, 3), stride=(1, 1), padding=(1, 1))\n",
      "      (norm): BatchNorm2d(64, eps=1e-05, momentum=0.1, affine=True, track_running_stats=True)\n",
      "    )\n",
      "  )\n",
      "  (bottleneck): Sequential(\n",
      "    (r0): ResBlock2d(\n",
      "      (conv1): Conv2d(256, 256, kernel_size=(3, 3), stride=(1, 1), padding=(1, 1))\n",
      "      (conv2): Conv2d(256, 256, kernel_size=(3, 3), stride=(1, 1), padding=(1, 1))\n",
      "      (norm1): BatchNorm2d(256, eps=1e-05, momentum=0.1, affine=True, track_running_stats=True)\n",
      "      (norm2): BatchNorm2d(256, eps=1e-05, momentum=0.1, affine=True, track_running_stats=True)\n",
      "    )\n",
      "    (r1): ResBlock2d(\n",
      "      (conv1): Conv2d(256, 256, kernel_size=(3, 3), stride=(1, 1), padding=(1, 1))\n",
      "      (conv2): Conv2d(256, 256, kernel_size=(3, 3), stride=(1, 1), padding=(1, 1))\n",
      "      (norm1): BatchNorm2d(256, eps=1e-05, momentum=0.1, affine=True, track_running_stats=True)\n",
      "      (norm2): BatchNorm2d(256, eps=1e-05, momentum=0.1, affine=True, track_running_stats=True)\n",
      "    )\n",
      "    (r2): ResBlock2d(\n",
      "      (conv1): Conv2d(256, 256, kernel_size=(3, 3), stride=(1, 1), padding=(1, 1))\n",
      "      (conv2): Conv2d(256, 256, kernel_size=(3, 3), stride=(1, 1), padding=(1, 1))\n",
      "      (norm1): BatchNorm2d(256, eps=1e-05, momentum=0.1, affine=True, track_running_stats=True)\n",
      "      (norm2): BatchNorm2d(256, eps=1e-05, momentum=0.1, affine=True, track_running_stats=True)\n",
      "    )\n",
      "    (r3): ResBlock2d(\n",
      "      (conv1): Conv2d(256, 256, kernel_size=(3, 3), stride=(1, 1), padding=(1, 1))\n",
      "      (conv2): Conv2d(256, 256, kernel_size=(3, 3), stride=(1, 1), padding=(1, 1))\n",
      "      (norm1): BatchNorm2d(256, eps=1e-05, momentum=0.1, affine=True, track_running_stats=True)\n",
      "      (norm2): BatchNorm2d(256, eps=1e-05, momentum=0.1, affine=True, track_running_stats=True)\n",
      "    )\n",
      "    (r4): ResBlock2d(\n",
      "      (conv1): Conv2d(256, 256, kernel_size=(3, 3), stride=(1, 1), padding=(1, 1))\n",
      "      (conv2): Conv2d(256, 256, kernel_size=(3, 3), stride=(1, 1), padding=(1, 1))\n",
      "      (norm1): BatchNorm2d(256, eps=1e-05, momentum=0.1, affine=True, track_running_stats=True)\n",
      "      (norm2): BatchNorm2d(256, eps=1e-05, momentum=0.1, affine=True, track_running_stats=True)\n",
      "    )\n",
      "    (r5): ResBlock2d(\n",
      "      (conv1): Conv2d(256, 256, kernel_size=(3, 3), stride=(1, 1), padding=(1, 1))\n",
      "      (conv2): Conv2d(256, 256, kernel_size=(3, 3), stride=(1, 1), padding=(1, 1))\n",
      "      (norm1): BatchNorm2d(256, eps=1e-05, momentum=0.1, affine=True, track_running_stats=True)\n",
      "      (norm2): BatchNorm2d(256, eps=1e-05, momentum=0.1, affine=True, track_running_stats=True)\n",
      "    )\n",
      "  )\n",
      "  (final): Conv2d(64, 3, kernel_size=(7, 7), stride=(1, 1), padding=(3, 3))\n",
      ")\n",
      "MultiScaleDiscriminator(\n",
      "  (discs): ModuleDict(\n",
      "    (1): Discriminator(\n",
      "      (down_blocks): ModuleList(\n",
      "        (0): DownBlock2d(\n",
      "          (conv): Conv2d(3, 64, kernel_size=(4, 4), stride=(1, 1))\n",
      "          (norm): Identity()\n",
      "          (pool): AvgPool2d(kernel_size=2, stride=2, padding=0)\n",
      "        )\n",
      "        (1): DownBlock2d(\n",
      "          (conv): Conv2d(64, 128, kernel_size=(4, 4), stride=(1, 1))\n",
      "          (norm): InstanceNorm2d(128, eps=1e-05, momentum=0.1, affine=True, track_running_stats=False)\n",
      "          (pool): AvgPool2d(kernel_size=2, stride=2, padding=0)\n",
      "        )\n",
      "        (2): DownBlock2d(\n",
      "          (conv): Conv2d(128, 256, kernel_size=(4, 4), stride=(1, 1))\n",
      "          (norm): InstanceNorm2d(256, eps=1e-05, momentum=0.1, affine=True, track_running_stats=False)\n",
      "          (pool): AvgPool2d(kernel_size=2, stride=2, padding=0)\n",
      "        )\n",
      "        (3): DownBlock2d(\n",
      "          (conv): Conv2d(256, 512, kernel_size=(4, 4), stride=(1, 1))\n",
      "          (norm): InstanceNorm2d(512, eps=1e-05, momentum=0.1, affine=True, track_running_stats=False)\n",
      "          (pool): Identity()\n",
      "        )\n",
      "      )\n",
      "      (conv): Conv2d(512, 1, kernel_size=(1, 1), stride=(1, 1))\n",
      "    )\n",
      "  )\n",
      ")\n",
      "KPDetector(\n",
      "  (predictor): Hourglass(\n",
      "    (encoder): Encoder(\n",
      "      (down_blocks): ModuleList(\n",
      "        (0): DownBlock2d(\n",
      "          (conv): Conv2d(3, 64, kernel_size=(3, 3), stride=(1, 1), padding=(1, 1))\n",
      "          (norm): BatchNorm2d(64, eps=1e-05, momentum=0.1, affine=True, track_running_stats=True)\n",
      "          (pool): AvgPool2d(kernel_size=(2, 2), stride=(2, 2), padding=0)\n",
      "        )\n",
      "        (1): DownBlock2d(\n",
      "          (conv): Conv2d(64, 128, kernel_size=(3, 3), stride=(1, 1), padding=(1, 1))\n",
      "          (norm): BatchNorm2d(128, eps=1e-05, momentum=0.1, affine=True, track_running_stats=True)\n",
      "          (pool): AvgPool2d(kernel_size=(2, 2), stride=(2, 2), padding=0)\n",
      "        )\n",
      "        (2): DownBlock2d(\n",
      "          (conv): Conv2d(128, 256, kernel_size=(3, 3), stride=(1, 1), padding=(1, 1))\n",
      "          (norm): BatchNorm2d(256, eps=1e-05, momentum=0.1, affine=True, track_running_stats=True)\n",
      "          (pool): AvgPool2d(kernel_size=(2, 2), stride=(2, 2), padding=0)\n",
      "        )\n",
      "        (3): DownBlock2d(\n",
      "          (conv): Conv2d(256, 512, kernel_size=(3, 3), stride=(1, 1), padding=(1, 1))\n",
      "          (norm): BatchNorm2d(512, eps=1e-05, momentum=0.1, affine=True, track_running_stats=True)\n",
      "          (pool): AvgPool2d(kernel_size=(2, 2), stride=(2, 2), padding=0)\n",
      "        )\n",
      "        (4): DownBlock2d(\n",
      "          (conv): Conv2d(512, 1024, kernel_size=(3, 3), stride=(1, 1), padding=(1, 1))\n",
      "          (norm): BatchNorm2d(1024, eps=1e-05, momentum=0.1, affine=True, track_running_stats=True)\n",
      "          (pool): AvgPool2d(kernel_size=(2, 2), stride=(2, 2), padding=0)\n",
      "        )\n",
      "      )\n",
      "    )\n",
      "    (decoder): Decoder(\n",
      "      (up_blocks): ModuleList(\n",
      "        (0): UpBlock2d(\n",
      "          (conv): Conv2d(1024, 512, kernel_size=(3, 3), stride=(1, 1), padding=(1, 1))\n",
      "          (norm): BatchNorm2d(512, eps=1e-05, momentum=0.1, affine=True, track_running_stats=True)\n",
      "        )\n",
      "        (1): UpBlock2d(\n",
      "          (conv): Conv2d(1024, 256, kernel_size=(3, 3), stride=(1, 1), padding=(1, 1))\n",
      "          (norm): BatchNorm2d(256, eps=1e-05, momentum=0.1, affine=True, track_running_stats=True)\n",
      "        )\n",
      "        (2): UpBlock2d(\n",
      "          (conv): Conv2d(512, 128, kernel_size=(3, 3), stride=(1, 1), padding=(1, 1))\n",
      "          (norm): BatchNorm2d(128, eps=1e-05, momentum=0.1, affine=True, track_running_stats=True)\n",
      "        )\n",
      "        (3): UpBlock2d(\n",
      "          (conv): Conv2d(256, 64, kernel_size=(3, 3), stride=(1, 1), padding=(1, 1))\n",
      "          (norm): BatchNorm2d(64, eps=1e-05, momentum=0.1, affine=True, track_running_stats=True)\n",
      "        )\n",
      "        (4): UpBlock2d(\n",
      "          (conv): Conv2d(128, 32, kernel_size=(3, 3), stride=(1, 1), padding=(1, 1))\n",
      "          (norm): BatchNorm2d(32, eps=1e-05, momentum=0.1, affine=True, track_running_stats=True)\n",
      "        )\n",
      "      )\n",
      "    )\n",
      "  )\n",
      "  (kp): Conv2d(35, 10, kernel_size=(7, 7), stride=(1, 1))\n",
      "  (jacobian): Conv2d(35, 40, kernel_size=(7, 7), stride=(1, 1))\n",
      "  (down): AntiAliasInterpolation2d()\n",
      ")\n"
     ]
    },
    {
     "data": {
      "text/plain": "(OcclusionAwareGenerator(\n   (dense_motion_network): DenseMotionNetwork(\n     (hourglass): Hourglass(\n       (encoder): Encoder(\n         (down_blocks): ModuleList(\n           (0): DownBlock2d(\n             (conv): Conv2d(44, 128, kernel_size=(3, 3), stride=(1, 1), padding=(1, 1))\n             (norm): BatchNorm2d(128, eps=1e-05, momentum=0.1, affine=True, track_running_stats=True)\n             (pool): AvgPool2d(kernel_size=(2, 2), stride=(2, 2), padding=0)\n           )\n           (1): DownBlock2d(\n             (conv): Conv2d(128, 256, kernel_size=(3, 3), stride=(1, 1), padding=(1, 1))\n             (norm): BatchNorm2d(256, eps=1e-05, momentum=0.1, affine=True, track_running_stats=True)\n             (pool): AvgPool2d(kernel_size=(2, 2), stride=(2, 2), padding=0)\n           )\n           (2): DownBlock2d(\n             (conv): Conv2d(256, 512, kernel_size=(3, 3), stride=(1, 1), padding=(1, 1))\n             (norm): BatchNorm2d(512, eps=1e-05, momentum=0.1, affine=True, track_running_stats=True)\n             (pool): AvgPool2d(kernel_size=(2, 2), stride=(2, 2), padding=0)\n           )\n           (3): DownBlock2d(\n             (conv): Conv2d(512, 1024, kernel_size=(3, 3), stride=(1, 1), padding=(1, 1))\n             (norm): BatchNorm2d(1024, eps=1e-05, momentum=0.1, affine=True, track_running_stats=True)\n             (pool): AvgPool2d(kernel_size=(2, 2), stride=(2, 2), padding=0)\n           )\n           (4): DownBlock2d(\n             (conv): Conv2d(1024, 1024, kernel_size=(3, 3), stride=(1, 1), padding=(1, 1))\n             (norm): BatchNorm2d(1024, eps=1e-05, momentum=0.1, affine=True, track_running_stats=True)\n             (pool): AvgPool2d(kernel_size=(2, 2), stride=(2, 2), padding=0)\n           )\n         )\n       )\n       (decoder): Decoder(\n         (up_blocks): ModuleList(\n           (0): UpBlock2d(\n             (conv): Conv2d(1024, 1024, kernel_size=(3, 3), stride=(1, 1), padding=(1, 1))\n             (norm): BatchNorm2d(1024, eps=1e-05, momentum=0.1, affine=True, track_running_stats=True)\n           )\n           (1): UpBlock2d(\n             (conv): Conv2d(2048, 512, kernel_size=(3, 3), stride=(1, 1), padding=(1, 1))\n             (norm): BatchNorm2d(512, eps=1e-05, momentum=0.1, affine=True, track_running_stats=True)\n           )\n           (2): UpBlock2d(\n             (conv): Conv2d(1024, 256, kernel_size=(3, 3), stride=(1, 1), padding=(1, 1))\n             (norm): BatchNorm2d(256, eps=1e-05, momentum=0.1, affine=True, track_running_stats=True)\n           )\n           (3): UpBlock2d(\n             (conv): Conv2d(512, 128, kernel_size=(3, 3), stride=(1, 1), padding=(1, 1))\n             (norm): BatchNorm2d(128, eps=1e-05, momentum=0.1, affine=True, track_running_stats=True)\n           )\n           (4): UpBlock2d(\n             (conv): Conv2d(256, 64, kernel_size=(3, 3), stride=(1, 1), padding=(1, 1))\n             (norm): BatchNorm2d(64, eps=1e-05, momentum=0.1, affine=True, track_running_stats=True)\n           )\n         )\n       )\n     )\n     (mask): Conv2d(108, 11, kernel_size=(7, 7), stride=(1, 1), padding=(3, 3))\n     (occlusion): Conv2d(108, 1, kernel_size=(7, 7), stride=(1, 1), padding=(3, 3))\n     (down): AntiAliasInterpolation2d()\n   )\n   (first): SameBlock2d(\n     (conv): Conv2d(3, 64, kernel_size=(7, 7), stride=(1, 1), padding=(3, 3))\n     (norm): BatchNorm2d(64, eps=1e-05, momentum=0.1, affine=True, track_running_stats=True)\n   )\n   (down_blocks): ModuleList(\n     (0): DownBlock2d(\n       (conv): Conv2d(64, 128, kernel_size=(3, 3), stride=(1, 1), padding=(1, 1))\n       (norm): BatchNorm2d(128, eps=1e-05, momentum=0.1, affine=True, track_running_stats=True)\n       (pool): AvgPool2d(kernel_size=(2, 2), stride=(2, 2), padding=0)\n     )\n     (1): DownBlock2d(\n       (conv): Conv2d(128, 256, kernel_size=(3, 3), stride=(1, 1), padding=(1, 1))\n       (norm): BatchNorm2d(256, eps=1e-05, momentum=0.1, affine=True, track_running_stats=True)\n       (pool): AvgPool2d(kernel_size=(2, 2), stride=(2, 2), padding=0)\n     )\n   )\n   (up_blocks): ModuleList(\n     (0): UpBlock2d(\n       (conv): Conv2d(256, 128, kernel_size=(3, 3), stride=(1, 1), padding=(1, 1))\n       (norm): BatchNorm2d(128, eps=1e-05, momentum=0.1, affine=True, track_running_stats=True)\n     )\n     (1): UpBlock2d(\n       (conv): Conv2d(128, 64, kernel_size=(3, 3), stride=(1, 1), padding=(1, 1))\n       (norm): BatchNorm2d(64, eps=1e-05, momentum=0.1, affine=True, track_running_stats=True)\n     )\n   )\n   (bottleneck): Sequential(\n     (r0): ResBlock2d(\n       (conv1): Conv2d(256, 256, kernel_size=(3, 3), stride=(1, 1), padding=(1, 1))\n       (conv2): Conv2d(256, 256, kernel_size=(3, 3), stride=(1, 1), padding=(1, 1))\n       (norm1): BatchNorm2d(256, eps=1e-05, momentum=0.1, affine=True, track_running_stats=True)\n       (norm2): BatchNorm2d(256, eps=1e-05, momentum=0.1, affine=True, track_running_stats=True)\n     )\n     (r1): ResBlock2d(\n       (conv1): Conv2d(256, 256, kernel_size=(3, 3), stride=(1, 1), padding=(1, 1))\n       (conv2): Conv2d(256, 256, kernel_size=(3, 3), stride=(1, 1), padding=(1, 1))\n       (norm1): BatchNorm2d(256, eps=1e-05, momentum=0.1, affine=True, track_running_stats=True)\n       (norm2): BatchNorm2d(256, eps=1e-05, momentum=0.1, affine=True, track_running_stats=True)\n     )\n     (r2): ResBlock2d(\n       (conv1): Conv2d(256, 256, kernel_size=(3, 3), stride=(1, 1), padding=(1, 1))\n       (conv2): Conv2d(256, 256, kernel_size=(3, 3), stride=(1, 1), padding=(1, 1))\n       (norm1): BatchNorm2d(256, eps=1e-05, momentum=0.1, affine=True, track_running_stats=True)\n       (norm2): BatchNorm2d(256, eps=1e-05, momentum=0.1, affine=True, track_running_stats=True)\n     )\n     (r3): ResBlock2d(\n       (conv1): Conv2d(256, 256, kernel_size=(3, 3), stride=(1, 1), padding=(1, 1))\n       (conv2): Conv2d(256, 256, kernel_size=(3, 3), stride=(1, 1), padding=(1, 1))\n       (norm1): BatchNorm2d(256, eps=1e-05, momentum=0.1, affine=True, track_running_stats=True)\n       (norm2): BatchNorm2d(256, eps=1e-05, momentum=0.1, affine=True, track_running_stats=True)\n     )\n     (r4): ResBlock2d(\n       (conv1): Conv2d(256, 256, kernel_size=(3, 3), stride=(1, 1), padding=(1, 1))\n       (conv2): Conv2d(256, 256, kernel_size=(3, 3), stride=(1, 1), padding=(1, 1))\n       (norm1): BatchNorm2d(256, eps=1e-05, momentum=0.1, affine=True, track_running_stats=True)\n       (norm2): BatchNorm2d(256, eps=1e-05, momentum=0.1, affine=True, track_running_stats=True)\n     )\n     (r5): ResBlock2d(\n       (conv1): Conv2d(256, 256, kernel_size=(3, 3), stride=(1, 1), padding=(1, 1))\n       (conv2): Conv2d(256, 256, kernel_size=(3, 3), stride=(1, 1), padding=(1, 1))\n       (norm1): BatchNorm2d(256, eps=1e-05, momentum=0.1, affine=True, track_running_stats=True)\n       (norm2): BatchNorm2d(256, eps=1e-05, momentum=0.1, affine=True, track_running_stats=True)\n     )\n   )\n   (final): Conv2d(64, 3, kernel_size=(7, 7), stride=(1, 1), padding=(3, 3))\n ),\n MultiScaleDiscriminator(\n   (discs): ModuleDict(\n     (1): Discriminator(\n       (down_blocks): ModuleList(\n         (0): DownBlock2d(\n           (conv): Conv2d(3, 64, kernel_size=(4, 4), stride=(1, 1))\n           (norm): Identity()\n           (pool): AvgPool2d(kernel_size=2, stride=2, padding=0)\n         )\n         (1): DownBlock2d(\n           (conv): Conv2d(64, 128, kernel_size=(4, 4), stride=(1, 1))\n           (norm): InstanceNorm2d(128, eps=1e-05, momentum=0.1, affine=True, track_running_stats=False)\n           (pool): AvgPool2d(kernel_size=2, stride=2, padding=0)\n         )\n         (2): DownBlock2d(\n           (conv): Conv2d(128, 256, kernel_size=(4, 4), stride=(1, 1))\n           (norm): InstanceNorm2d(256, eps=1e-05, momentum=0.1, affine=True, track_running_stats=False)\n           (pool): AvgPool2d(kernel_size=2, stride=2, padding=0)\n         )\n         (3): DownBlock2d(\n           (conv): Conv2d(256, 512, kernel_size=(4, 4), stride=(1, 1))\n           (norm): InstanceNorm2d(512, eps=1e-05, momentum=0.1, affine=True, track_running_stats=False)\n           (pool): Identity()\n         )\n       )\n       (conv): Conv2d(512, 1, kernel_size=(1, 1), stride=(1, 1))\n     )\n   )\n ),\n KPDetector(\n   (predictor): Hourglass(\n     (encoder): Encoder(\n       (down_blocks): ModuleList(\n         (0): DownBlock2d(\n           (conv): Conv2d(3, 64, kernel_size=(3, 3), stride=(1, 1), padding=(1, 1))\n           (norm): BatchNorm2d(64, eps=1e-05, momentum=0.1, affine=True, track_running_stats=True)\n           (pool): AvgPool2d(kernel_size=(2, 2), stride=(2, 2), padding=0)\n         )\n         (1): DownBlock2d(\n           (conv): Conv2d(64, 128, kernel_size=(3, 3), stride=(1, 1), padding=(1, 1))\n           (norm): BatchNorm2d(128, eps=1e-05, momentum=0.1, affine=True, track_running_stats=True)\n           (pool): AvgPool2d(kernel_size=(2, 2), stride=(2, 2), padding=0)\n         )\n         (2): DownBlock2d(\n           (conv): Conv2d(128, 256, kernel_size=(3, 3), stride=(1, 1), padding=(1, 1))\n           (norm): BatchNorm2d(256, eps=1e-05, momentum=0.1, affine=True, track_running_stats=True)\n           (pool): AvgPool2d(kernel_size=(2, 2), stride=(2, 2), padding=0)\n         )\n         (3): DownBlock2d(\n           (conv): Conv2d(256, 512, kernel_size=(3, 3), stride=(1, 1), padding=(1, 1))\n           (norm): BatchNorm2d(512, eps=1e-05, momentum=0.1, affine=True, track_running_stats=True)\n           (pool): AvgPool2d(kernel_size=(2, 2), stride=(2, 2), padding=0)\n         )\n         (4): DownBlock2d(\n           (conv): Conv2d(512, 1024, kernel_size=(3, 3), stride=(1, 1), padding=(1, 1))\n           (norm): BatchNorm2d(1024, eps=1e-05, momentum=0.1, affine=True, track_running_stats=True)\n           (pool): AvgPool2d(kernel_size=(2, 2), stride=(2, 2), padding=0)\n         )\n       )\n     )\n     (decoder): Decoder(\n       (up_blocks): ModuleList(\n         (0): UpBlock2d(\n           (conv): Conv2d(1024, 512, kernel_size=(3, 3), stride=(1, 1), padding=(1, 1))\n           (norm): BatchNorm2d(512, eps=1e-05, momentum=0.1, affine=True, track_running_stats=True)\n         )\n         (1): UpBlock2d(\n           (conv): Conv2d(1024, 256, kernel_size=(3, 3), stride=(1, 1), padding=(1, 1))\n           (norm): BatchNorm2d(256, eps=1e-05, momentum=0.1, affine=True, track_running_stats=True)\n         )\n         (2): UpBlock2d(\n           (conv): Conv2d(512, 128, kernel_size=(3, 3), stride=(1, 1), padding=(1, 1))\n           (norm): BatchNorm2d(128, eps=1e-05, momentum=0.1, affine=True, track_running_stats=True)\n         )\n         (3): UpBlock2d(\n           (conv): Conv2d(256, 64, kernel_size=(3, 3), stride=(1, 1), padding=(1, 1))\n           (norm): BatchNorm2d(64, eps=1e-05, momentum=0.1, affine=True, track_running_stats=True)\n         )\n         (4): UpBlock2d(\n           (conv): Conv2d(128, 32, kernel_size=(3, 3), stride=(1, 1), padding=(1, 1))\n           (norm): BatchNorm2d(32, eps=1e-05, momentum=0.1, affine=True, track_running_stats=True)\n         )\n       )\n     )\n   )\n   (kp): Conv2d(35, 10, kernel_size=(7, 7), stride=(1, 1))\n   (jacobian): Conv2d(35, 40, kernel_size=(7, 7), stride=(1, 1))\n   (down): AntiAliasInterpolation2d()\n ))"
     },
     "execution_count": 33,
     "metadata": {},
     "output_type": "execute_result"
    }
   ],
   "source": [
    "model_service = ModelService(\n",
    "    config_path=MODEL_CONFIG_PATH,\n",
    "    checkpoint_path=MODEL_CHECKPOINT_PATH,\n",
    "    cpu=USE_CPU,\n",
    "    verbose=True,\n",
    ")\n",
…
